results/trained_dsnn.pt (torch, 19331 bytes, 9 tensors)

weight f4 [32, 5]
0	0xbdbe277f	-0.09284877
1	0x3edcf6df	0.43157098
2	0xbe74d1d3	-0.23908167
3	0x3efa0e38	0.48838973
4	0x3dea8427	0.11450987
5	0xbeb18cc3	-0.34677705
6	0x3e74e0ae	0.23913833
7	0x3e09424a	0.13404194
8	0xbd42cf6b	-0.04756109
9	0x3bfceba0	0.0077185184
10	0xbeae69be	-0.3406505
11	0x3dd141d9	0.102176376
12	0x3e2fbeb9	0.17162599
13	0x3e8331e8	0.25624013
14	0x3c50dfe9	0.012748697
15	0xbe1e8918	-0.15481985
16	0x3f7ab4e7	0.97932285
17	0xbe096178	-0.13416088
18	0xbf0114ef	-0.5042257
19	0xbebb4a5f	-0.36580178
20	0xbe82bb0e	-0.25533336
21	0x3ee926c4	0.45537388
22	0xbdbf3c02	-0.093376175
23	0xbf596404	-0.84918237
24	0x3ee46971	0.44611695
25	0x3e6ddee8	0.23229563
26	0xbd8fe6e9	-0.070264645
27	0x3f2b9e7e	0.67038715
28	0x3f070e1f	0.5275592
29	0x3e511498	0.20418012
30	0xbd0d1151	-0.034440342
31	0x3ed0b893	0.4076582
32	0xbf54e0fa	-0.83155787
33	0xbe470821	-0.19436695
34	0x3f4b1836	0.7933382
35	0xbedbfef6	-0.42967957
36	0xbe293b25	-0.16526468
37	0x3dbffccf	0.09374391
38	0xbe96cfc3	-0.29455385
39	0xbd938587	-0.07203203
40	0x3ed61f19	0.418206
41	0xbee77d08	-0.4521258
42	0xbed348dc	-0.41266525
43	0xbe8f7b7e	-0.28023905
44	0xbe54086d	-0.20706339
45	0xbebed7b4	-0.37273943
46	0xbe9263a9	-0.2859166
47	0xbf19a759	-0.6002098
48	0x3f11c03a	0.5693394
49	0x3f800410	1.000124
50	0x3cc70a67	0.024296952
51	0x3eb62777	0.35576984
52	0xbeec6b2b	-0.46175513
53	0xbee2eaf2	-0.44319874
54	0x3e92ffa0	0.2871065
55	0xbf3369a3	-0.70083064
56	0xbe552fa9	-0.20818962
57	0x3f260716	0.6485456
58	0xbe02d17e	-0.12775227
59	0xbf02cf09	-0.5109716
60	0xbe4a678a	-0.1976606
61	0x3c29982c	0.010351222
62	0xbe55abaa	-0.20866266
63	0xbd729aa6	-0.059229515
64	0xbeb919b9	-0.36152437
65	0x3e562f6f	0.20916532
66	0xbf1f49c4	-0.6222193
67	0xbf1a38fc	-0.602432
68	0x3e9cda22	0.30635172
69	0x3f0d5582	0.552086
70	0xbd8eeb56	-0.069784805
71	0xbd2d162e	-0.04225748
72	0xbea29899	-0.31757048
73	0xbec1dca9	-0.37863663
74	0xbe4443c1	-0.19166471
75	0x3e4db398	0.20088041
76	0xbe9c80ba	-0.3056696
77	0x3e1ed011	0.15509059
78	0x3f22b6a2	0.63559926
79	0x3daa835f	0.08325838
80	0xbf632447	-0.8872723
81	0xbd832500	-0.064035416
82	0xbebafd4a	-0.3652137
83	0xbc933463	-0.017969316
84	0xbefb76ce	-0.49114078
85	0x3f12b354	0.57304883
86	0x3e54b926	0.20773754
87	0xbe711655	-0.23543675
88	0xbca52c31	-0.020162674
89	0x3d7ee885	0.062233467
90	0xbeb8ce2d	-0.360948
91	0xbdcfd9a2	-0.10148932
92	0x3e135bee	0.14390537
93	0xbe5163d7	-0.20448242
94	0x3ec9455b	0.39310727
95	0xbfa1b497	-1.2633237
96	0x3ef064ea	0.4695199
97	0x3f0975fd	0.5369566
98	0x3e84ea31	0.25959924
99	0xbd90abf0	-0.070640445
100	0x3e0f3cbb	0.1398801
101	0x3e57605c	0.21032852
102	0xbe278597	-0.16359554
103	0x3ee05152	0.43812042
104	0xbed32028	-0.4123547
105	0xbf0c0685	-0.5469745
106	0xbed672a9	-0.41884354
107	0x3f3391cc	0.70144343
108	0x3d487abc	0.048945174
109	0x3da3e735	0.080030836
110	0xbed05a4c	-0.4069389
111	0x3e462432	0.19349745
112	0xbbf023f7	-0.007328506
113	0xbeb8d153	-0.36097202
114	0xbe350008	-0.17675793
115	0xbe89b607	-0.26896688
116	0x3e118035	0.14209063
117	0x3e79295b	0.24332182
118	0x3f30dc75	0.6908639
119	0xbe596b3d	-0.21232314
120	0x3d1df3ae	0.03856247
121	0x3c118091	0.00888075
122	0x3d79faa9	0.061030064
123	0x3e8ac2a3	0.2710162
124	0x3e36f372	0.17866305
125	0x3e31c420	0.17359972
126	0xbf73ed32	-0.95283806
127	0x3ead5e9b	0.3386124
128	0x3c5e78da	0.013578618
129	0xbf893696	-1.0719783
130	0x3ee7bd59	0.45261648
131	0xbdb2fe1d	-0.087398745
132	0x3e93b532	0.2884918
133	0xbda3f431	-0.0800556
134	0xbca186cb	-0.019717595
135	0xbf30d9cb	-0.69082326
136	0x3c02de17	0.007987521
137	0xbe8dda99	-0.2770584
138	0x3e80f5c4	0.25187504
139	0x3dae1fe2	0.08502175
140	0x3d0bb658	0.034109443
141	0xbdf2c7c3	-0.11854508
142	0x3d9cf1af	0.07663285
143	0x3f2cf905	0.67567474
144	0x3e963be2	0.29342562
145	0xbe27b9e8	-0.16379511
146	0x3e39b946	0.18137082
147	0x3e1752fb	0.14777748
148	0xbede71a4	-0.43446076
149	0xbe81fe07	-0.2538912
150	0x3f0b949b	0.5452363
151	0x3d8902a2	0.06689955
152	0xbcfee689	-0.031115787
153	0x3f2fa389	0.6860891
154	0xbf38da01	-0.7220765
155	0x3f0fb13c	0.56129813
156	0xbdaa2bf2	-0.08309163
157	0xbed3988c	-0.41327322
158	0x3ddbae00	0.10726547
159	0xbe367f62	-0.1782203

bias f4 [32]
0	0x3db23b61	0.08702732
1	0x3e841fa7	0.258054
2	0x3eaef0d1	0.34168103
3	0x3e109181	0.14118005
4	0xbd55a45b	-0.052158695
5	0xbecd8d97	-0.40147087
6	0x3e4d448f	0.20045684
7	0x3ea13398	0.31484675
8	0xbe3a05f3	-0.18166332
9	0xbf0bc7c2	-0.5460168
10	0x3eb67f74	0.35644114
11	0xbd8c3cb9	-0.068475194
12	0x3e0a113e	0.1348314
13	0xbdb07ebf	-0.08617925
14	0x3eb5abf7	0.3548276
15	0x3eda6c6d	0.42660847
16	0x3e932f85	0.28747192
17	0xbe023977	-0.12717234
18	0x3ea078eb	0.31342253
19	0x3e20d6e3	0.15706973
20	0x3dec07dc	0.115249366
21	0xbed3f0a4	-0.41394532
22	0xbe4fc3de	-0.20289561
23	0xbf0399ba	-0.51406443
24	0x3e8dc50d	0.276894
25	0x3ed46581	0.4148369
26	0x3e621c45	0.22081096
27	0x3e550eaa	0.20806375
28	0x3e15c667	0.14626466
29	0x3eca284b	0.39483866
30	0xbe88841e	-0.26663297
31	0xbe13f066	-0.14447173

weight f4 [32, 32]
0	0xbd079dc8	-0.033109456
1	0x3e37d950	0.17953992
2	0x3c6c4e6f	0.014422997
3	0xbdf4537c	-0.11929986
4	0x3c4557a2	0.012044819
5	0x3db72343	0.089422725
6	0x3d619d48	0.055081636
7	0x3d31cb9c	0.043407068
8	0xbd59a924	-0.05313982
9	0x3d64abc0	0.055827856
10	0xbe965820	-0.2936411
11	0xbd9c46e5	-0.076307096
12	0xbe954216	-0.29151982
13	0x3d6c59fb	0.057703
14	0xbc81b50f	-0.015833406
15	0x3d21c44c	0.039493844
16	0x3d7e12c2	0.062029608
17	0xbe61d563	-0.22054057
18	0xbe077cff	-0.13231276
19	0xbddfb7f0	-0.10923755
20	0x3e2001f6	0.15625748
21	0xbdb8b9e0	-0.09019828
22	0xbd550539	-0.052006934
23	0xbe799fa1	-0.243773
24	0xbc3799d8	-0.011206113
25	0xbe74cc50	-0.23906064
26	0xbd344119	-0.044007394
27	0x3d98ce5d	0.07461236
28	0xbd0ef721	-0.03490365
29	0x3c59a24f	0.013283326
30	0xbdc690f2	-0.09695615
31	0xbd1dc1ef	-0.038515028
32	0xbde4b56d	-0.11167417
33	0x3e7f7a0b	0.249489
34	0xbe780fdf	-0.24224804
35	0x3e41d157	0.18927513
36	0xbe7cddf3	-0.24694042
37	0xbd907a50	-0.07054579
38	0x3db703c7	0.08936267
39	0xbdd16bd3	-0.10225644
40	0xbe8ce80c	-0.27520788
41	0xbe2e9ad7	-0.17051254
42	0x3e32d9b0	0.17465854
43	0x3e3369e0	0.17520857
44	0xbda36e7a	-0.07980056
45	0xbe79d153	-0.24396257
46	0xbde912dd	-0.11380551
47	0xbe80bf24	-0.2514583
48	0x3da1de8c	0.079037756
49	0x3e922106	0.2854082
50	0x3de1606b	0.110047184
51	0xbeb60919	-0.35553816
52	0x3de6882e	0.11256443
53	0xbe72a320	-0.2369504
54	0xbea8c3e2	-0.32961947
55	0x3bf34f91	0.0074252565
56	0xbe4f8ce1	-0.20268585
57	0xbda9c635	-0.08289758
58	0x3e045656	0.1292356
59	0x3e3cf462	0.184526
60	0x3eb8b683	0.36076745
61	0x3e708939	0.23489846
62	0xbe377db2	-0.17919043
63	0xbe188f02	-0.14898303
64	0xbe0c1a00	-0.13681793
65	0xbd84a0a2	-0.06475951
66	0xbe8f9a91	-0.28047612
67	0xbe212fb2	-0.1574085
68	0x3d0717fb	0.032981854
69	0x3d915c32	0.07097663
70	0x3d2dadfc	0.042402253
71	0xbe0ebab2	-0.13938406
72	0x3c0e13ff	0.00867176
73	0xbc8b1711	-0.016978772
74	0x3e550dd5	0.20806058
75	0x3e50df93	0.20397787
76	0x3e2850d6	0.16437086
77	0x3ec2753e	0.37980074
78	0xbeae260e	-0.34013408
79	0x3dd354d7	0.10318916
80	0x3d1b7941	0.037957434
81	0xbe442609	-0.19155134
82	0xbe829ec2	-0.25511748
83	0xbeb71096	-0.35754842
84	0xbe8d38c2	-0.27582365
85	0x3a0b71e5	0.0005319401
86	0xbd87e71c	-0.066358775
87	0xbee0256e	-0.43778557
88	0x3daf37ea	0.08555587
89	0x3ea43be7	0.32076952
90	0xbdd02c7a	-0.10164733
91	0x3d06564b	0.03279714
92	0xbebde60b	-0.3708957
93	0xbe2b1604	-0.16707617
94	0x3e681287	0.22663318
95	0xbd9585ef	-0.073009364
96	0x3e32d3d4	0.17463619
97	0x3e482d9d	0.1954865
98	0x3dbecd34	0.09316483
99	0xbd51de4c	-0.05123739
100	0xbe9de8f2	-0.30841786
101	0xbd6ee910	-0.058327734
102	0x3dabac3a	0.08382459
103	0x3e9dd28b	0.30824694
104	0x3ea27ef2	0.31737477
105	0xbd8c44f5	-0.0684909
106	0x3df4969d	0.1194279
107	0xbd270bbf	-0.040782686
108	0xbde40be9	-0.11135084
109	0xbd323f67	-0.043517496
110	0xbe1e688e	-0.15469572
111	0xbdbc410a	-0.09192093
112	0x3e1abb23	0.1511045
113	0x3e809afb	0.2511824
114	0xbe0f5d01	-0.14000322
115	0xbd80a05d	-0.06280587
116	0xbd71e5ef	-0.059057172
117	0x3e75e905	0.24014671
118	0xbe773039	-0.24139489
119	0x3c95cf91	0.018287452
120	0x3def90d3	0.11697545
121	0xbb6ca9a2	-0.0036111851
122	0xbe4c35a6	-0.1994234
123	0x3e5c288a	0.2149984
124	0x3e0f3ff4	0.1398924
125	0xbd7a9d63	-0.061185252
126	0x3e3f5be6	0.186874
127	0xbcc23043	-0.023704654
128	0x3db0fb92	0.08641733
129	0xbc8fba6a	-0.017544944
130	0xbdc52e81	-0.096280105
131	0x3e70131b	0.23444788
132	0x3e9ac5b0	0.3022895
133	0x3e44632d	0.19178458
134	0xbdc8f73e	-0.09812783
135	0xbe8b8e13	-0.27256832
136	0x3e4355f3	0.19075756
137	0xbd88ee43	-0.0668607
138	0xbe51ab5c	-0.20475525
139	0x3ea545b0	0.3227973
140	0x3cd72beb	0.026266059
141	0x3d2cd8d0	0.042198956
142	0xbf0ff0c9	-0.56226784
143	0xbe88e70e	-0.2673878
144	0xbeada255	-0.33912912
145	0x3de3af39	0.111174054
146	0x3e1bcdb0	0.15215182
147	0x3e8b2c06	0.27182025
148	0xbdcdf843	-0.10057118
149	0x3e826036	0.25464028
150	0xbd776167	-0.060395624
151	0xbe32f1ae	-0.17475006
152	0x3d3b49c9	0.045724664
153	0x3d6cc3d4	0.057803944
154	0x3e968c8f	0.29404113
155	0xbe21e5b1	-0.15810277
156	0x3bffe21b	0.0078089363
157	0xbe06544b	-0.13118093
158	0x3e76077c	0.24026293
159	0xbd3d890a	-0.04627327
160	0x3c1dd28c	0.009632718
161	0x3e2c1d05	0.16807945
162	0xbe2ca4af	-0.16859697
163	0x3d1786bf	0.03699374
164	0x3e67197f	0.2256832
165	0xbd06d65e	-0.03291928
166	0x3d86ae76	0.065762445
167	0x3d1f45f0	0.038885057
168	0x3cc66c79	0.024221646
169	0x3d859d81	0.06524182
170	0x3ebb7a99	0.36616972
171	0x3cbe91c9	0.023262875
172	0x3e36425b	0.1779875
173	0xbddbc354	-0.10730615
174	0xbe580caa	-0.21098581
175	0xbd78894f	-0.060677823
176	0x3ebb336c	0.3656267
177	0x3ea2ed12	0.31821495
178	0x3a65dfdd	0.0008769015
179	0x3e267cdb	0.16258566
180	0x3eb4c062	0.35303026
181	0x3e7a5abe	0.24448678
182	0x3e303b50	0.17210126
183	0xbea50eb3	-0.32237777
184	0x3e1c79c3	0.15280823
185	0xbdd977c8	-0.106185496
186	0xbe4024f0	-0.1876409
187	0x3db52dbd	0.088466145
188	0x3e2fdbb5	0.17173655
189	0xbe0390e2	-0.12848237
190	0x3c4c1079	0.012455099
191	0xbdbfa2b7	-0.09357207
192	0x3e15d520	0.14632082
193	0xbdb5a8f0	-0.08870113
194	0xbeb1efd0	-0.34753275
195	0xbd3d109c	-0.046158418
196	0xbe8c64fb	-0.27420792
197	0xbe09e19f	-0.13464974
198	0xbdfa6ac0	-0.12227392
199	0x3e7d144a	0.24714771
200	0x3ddfed2a	0.10933907
201	0x3e9775bc	0.29582012
202	0xbdade6f6	-0.08491318
203	0xbe068d94	-0.13139945
204	0x3e0b884c	0.13626212
205	0xbea18a9e	-0.3155107
206	0xbe5e2f17	-0.21697651
207	0xbcee46c3	-0.029086476
208	0x3d3fa427	0.046787407
209	0xbdfae495	-0.1225063
210	0x3d21dd57	0.039517727
211	0xbe6a494d	-0.22879525
212	0x3d6bb706	0.05754759
213	0x3e211c2e	0.15733406
214	0x3ccd7a36	0.025082689
215	0x3d2447ef	0.040107664
216	0x3e231959	0.15927638
217	0xbdf9cf3b	-0.12197729
218	0xbdedb44a	-0.11606653
219	0x3ced0439	0.028932678
220	0x3d149600	0.036275864
221	0xbce8f4f8	-0.028437123
222	0xbd1d161e	-0.03835117
223	0x3edb4734	0.4282776
224	0x3dfbd0a4	0.122956544
225	0xbe73f49d	-0.23823781
226	0xbe1b4a10	-0.15164971
227	0x3e481558	0.19539392
228	0xbd5e2f45	-0.0542443
229	0x3ca5a4d2	0.020220194
230	0xbe08f61a	-0.1337513
231	0xba242bb2	-0.00062626146
232	0x3e3101c5	0.17285831
233	0xbe3e0170	-0.18555236
234	0x3d272f14	0.04081638
235	0xbe9d18e9	-0.30683067
236	0x3e331362	0.17487863
237	0x3dd235ee	0.102641925
238	0x39935678	0.0002810245
239	0x3e8766af	0.2644553
240	0x3e51ee5e	0.20501086
241	0xbde49286	-0.1116076
242	0x3dae74ed	0.085183956
243	0x3e5eb38c	0.21748179
244	0xbe0e74c4	-0.1391173
245	0x3e046339	0.12928475
246	0xbe0cf6f7	-0.13766085
247	0xbdb0f2f3	-0.08640089
248	0x3bf9fa9e	0.007628753
249	0x3cec7d0f	0.028868226
250	0x3e752e32	0.23943403
251	0x3e166e85	0.14690597
252	0xbe434cc8	-0.19072258
253	0xbdbf97b1	-0.09355105
254	0x3ea48c6f	0.32138392
255	0x3d5ed969	0.054406557

bias f4 [32]
0	0xbdba31cf	-0.090915315
1	0x3e130a25	0.14359339
2	0x3e106a67	0.1410309
3	0x3e33586a	0.17514196
4	0xbe322937	-0.17398535
5	0x3e12f7ea	0.14352384
6	0x3d1aae58	0.037763923
7	0xbd8c3cf9	-0.06847567
8	0x3d546b7a	0.05186031
9	0x3df03f9f	0.11730885
10	0x3de79f03	0.11309626
11	0xbe4864f9	-0.19569768
12	0x3dd96a85	0.1061602
13	0xbda6f3f8	-0.08152002
14	0x3dc8be71	0.09801949
15	0xbdd91086	-0.10598855
16	0xbe00f696	-0.12594065
17	0xbd95c0bf	-0.07312154
18	0x3e081001	0.13287355
19	0xbe070aa1	-0.13187648
20	0x3dbc833b	0.09204718
21	0x3d7743b0	0.060367286
22	0x3d04c704	0.03241636
23	0xbc3a2f79	-0.011363857
24	0xbd94f046	-0.07272391
25	0xbdb8b34e	-0.09018575
26	0xbded1578	-0.115763605
27	0x3e1d21cf	0.15344928
28	0xbca70a73	-0.020390725
29	0xbd45b098	-0.048264116
30	0xbe3f5a58	-0.18686807
31	0x3d4ea282	0.05044795

weight f4 [32, 32]
0	0xbe7ce97d	-0.24698444
1	0x3bc6c64d	0.0060661198
2	0x3c392d41	0.011302293
3	0x3e6ee141	0.23328115
4	0x3c01ebf8	0.0079297945
5	0x3dbb677a	0.09150596
6	0x3e5025c6	0.2032691
7	0xbdd1e99b	-0.10249635
8	0x3e45a9c4	0.19303042
9	0xbe317033	-0.17327957
10	0x3e4eb242	0.20185187
11	0x3e2ac1ed	0.1667554
12	0x3d8b0541	0.067881115
13	0x3d72417e	0.05914449
14	0x3e151e1c	0.14562267
15	0xbca617c9	-0.020275014
16	0xbd77b9ac	-0.060479805
17	0x3d76b277	0.06022879
18	0xbdd0f1d2	-0.102023736
19	0xbe20519e	-0.15656134
20	0xbe66d555	-0.22542317
21	0x3ca59ca7	0.0202163
22	0xbe11420a	-0.14185348
23	0x3e731280	0.23737526
24	0x3d204d4c	0.039136216
25	0x3d5343fa	0.0515785
26	0xbe86bcd6	-0.26315945
27	0xbeb76c24	-0.35824692
28	0xbec903b2	-0.39260632
29	0xbec25524	-0.37955582
30	0x3d8e2b0a	0.06941803
31	0xbe7dd79b	-0.24789278
32	0xbdb10170	-0.08642852
33	0x3d75d835	0.060020644
34	0xbe9c585d	-0.30536166
35	0x3e5ec7be	0.21755883
36	0x3c1372a2	0.008999499
37	0xbe2b3a40	-0.1672144
38	0xbebec35b	-0.3725842
39	0xbe70ce79	-0.23516263
40	0xbe7a1331	-0.24421383
41	0xbd90bcb8	-0.07067245
42	0xbd8f0b04	-0.06984523
43	0xbdc89aa0	-0.097951174
44	0x3e5610bc	0.20904821
45	0x3ce370ef	0.027763812
46	0xbc4fab75	-0.012675156
47	0xbcb0253e	-0.021502133
48	0xbdcfbf11	-0.10143865
49	0x3e9f71d2	0.31141526
50	0xbda2749f	-0.079324
51	0xbe1dd1dd	-0.15412088
52	0x3d8299d7	0.06376999
53	0xbe47d140	-0.19513416
54	0xbe0a8e1a	-0.1353077
55	0xbddf8d2c	-0.10915598
56	0xbd0dc2e7	-0.0346097
57	0xbeb597b6	-0.3546731
58	0x3b89def0	0.0042074844
59	0xbe97895b	-0.2959698
60	0x3df728c3	0.120683216
61	0xbe4c8a37	-0.199746
62	0x3caf9b63	0.021436399
63	0x3da019af	0.07817399
64	0x3de9bdc4	0.11413148
65	0x3e195043	0.14972024
66	0xbd294ba9	-0.04133192
67	0xbd27d23f	-0.04097199
68	0x3db62ffd	0.08895872
69	0x3d8bbe37	0.0682339
70	0xbe704f28	-0.23467696
71	0xbe6989e4	-0.22806507
72	0x3e6e007b	0.23242371
73	0xbdc8a229	-0.097965546
74	0xbdc0ab89	-0.09407718
75	0xbd10f0b2	-0.035385795
76	0x3e9711a8	0.29505658
77	0x3eed465f	0.4634275
78	0xbed667bc	-0.41876018
79	0x3dae3943	0.085070156
80	0xbdcd9f25	-0.1004012
81	0x3d8180ce	0.06323396
82	0xbead0942	-0.33796126
83	0x3e44934f	0.19196819
84	0x3d9a8b39	0.07546086
85	0x3d82c78d	0.063857175
86	0x3d657d37	0.056027617
87	0x3d866727	0.065626435
88	0x3b204bf3	0.0024459332
89	0xbd0bf973	-0.03417344
90	0x3e5eee9d	0.21770711
91	0x3e144318	0.14478719
92	0x3e3f0599	0.18654479
93	0xbe699514	-0.22810775
94	0xbe8c98e2	-0.2746039
95	0xbd57e108	-0.05270484
96	0xbd7e7795	-0.06212576
97	0xbde35c65	-0.11101607
98	0x3da18464	0.0788658
99	0x3e533644	0.2062617
100	0x3d0aee2e	0.033918552
101	0x3ea82d1e	0.32846922
102	0xbe24c9fc	-0.16092676
103	0xbdfae233	-0.12250175
104	0xbd0365c8	-0.032079488
105	0x3e4106b9	0.1885022
106	0x3cc68f8d	0.024238372
107	0xbce0be94	-0.027434625
108	0xbd4a844f	-0.049442586
109	0xbb59cf89	-0.0033235273
110	0x3df5b32a	0.119970635
111	0xbd5b0942	-0.053475626
112	0x3e818a09	0.25300625
113	0x3cb9dcc5	0.022688279
114	0x3df24611	0.1182977
115	0xbd4682ee	-0.048464708
116	0x3d9b56a0	0.07584882
117	0x3df14d1a	0.11782284
118	0xbd05218f	-0.032502707
119	0x3e1bb032	0.15203932
120	0xbeae7382	-0.340725
121	0x3d3ac5fe	0.045598976
122	0x3e2120bc	0.15735143
123	0x3d3e0541	0.04639173
124	0x3df52829	0.119705506
125	0xbe20343b	-0.15644924
126	0x3cf6b105	0.030113706
127	0xbdc71c28	-0.09722167
128	0x3e79e497	0.24403606
129	0xbe502d39	-0.20329751
130	0xbd96a3ab	-0.07355436
131	0x3e0d2698	0.13784254
132	0x3de33027	0.11093169
133	0x3b8f40e1	0.004371748
134	0x3e8cf6a6	0.27531928
135	0xbe1afa83	-0.15134625
136	0xbdefcb19	-0.1170866
137	0xbe0d1387	-0.1377698
138	0xbe8b65bd	-0.27226058
139	0xbecc990b	-0.39960513
140	0xbdf4ae35	-0.1194729
141	0xbdd07ef1	-0.10180462
142	0x3e5d7054	0.21624881
143	0xbe1cac75	-0.15300162
144	0xbd9eaef8	-0.077482164
145	0x3e1b86a3	0.15188079
146	0xbe454388	-0.19264042
147	0x3e2b2bb8	0.16715896
148	0xbecd5b70	-0.40108824
149	0xbca790a1	-0.020454707
150	0x3dfb1747	0.12260299
151	0xbd86b667	-0.06577759
152	0x3c779513	0.015111226
153	0xbdd483ac	-0.10376677
154	0xbe21e5ee	-0.15810367
155	0xbe018b48	-0.12650788
156	0xbdbdf73c	-0.09275672
157	0x3ec44126	0.38330954
158	0xbe3c46f9	-0.18386449
159	0xbdeffb95	-0.11717907
160	0xbe92fa7e	-0.28706735
161	0xba2ef98f	-0.00066747604
162	0x3d850e3f	0.06496858
163	0x3eabcb7f	0.33553693
164	0x3e328499	0.17433394
165	0xbe887de8	-0.2665856
166	0x3dd7b8d1	0.10533298
167	0x3c53da53	0.0129304705
168	0xbd573cc1	-0.052548174
169	0x3d8ac57d	0.06775949
170	0xbd8ee4fe	-0.069772705
171	0xbe58040e	-0.21095297
172	0xbdaead09	-0.085290976
173	0xbe3b9441	-0.18318273
174	0xbd2d31fc	-0.042283997
175	0x3c0ddccb	0.008658598
176	0x3e37a758	0.1793493
177	0xbde48724	-0.111585885
178	0x3d5af466	0.053455733
179	0xbdae4602	-0.08509447
180	0xbe9bebe7	-0.30453417
181	0xbe29dc6f	-0.16587995
182	0xbea8a10c	-0.3293537
183	0xbd7e7449	-0.062122617
184	0x3dec216e	0.11529814
185	0x3d905447	0.07047325
186	0x3e8d5292	0.2760206
187	0xbdd7f77a	-0.10545249
188	0x3dc0c6c3	0.09412911
189	0xbea8a9ff	-0.32942197
190	0xbef2fd11	-0.474587
191	0x3e9f4d98	0.31113887
192	0x3e640383	0.22266965
193	0xbdb4307f	-0.087983124
194	0x3e2c9b76	0.16856179
195	0xbe14620f	-0.14490531
196	0x3e687855	0.22702153
197	0x3e2583a6	0.16163501
198	0xbe7f4d25	-0.24931772
199	0x3c60d1d6	0.013721904
200	0xbde323d6	-0.110908195
201	0x3e0083ac	0.12550229
202	0xbdf240c9	-0.11828763
203	0x3d9e13d5	0.077186264
204	0xbc87dff0	-0.016586274
205	0xbeb08696	-0.3447768
206	0x3dddcaeb	0.10829719
207	0xbdb54e66	-0.08852844
208	0x3e19244f	0.14955257
209	0x3d01dd65	0.03170528
210	0x3e56f2ad	0.20991011
211	0x3da66966	0.08125572
212	0xbe0f148e	-0.13972685
213	0xbe994019	-0.29931715
214	0x3ea49774	0.321468
215	0xbd9dd8ee	-0.07707392
216	0xbebce67b	-0.36894593
217	0x3dd00e15	0.10158936
218	0xbe1c89dc	-0.15286964
219	0x3e91bb17	0.2846305
220	0x3d87e66d	0.06635747
221	0xbdf6afe4	-0.12045267
222	0x3e28436e	0.16431972
223	0x3c0f806e	0.008758647
224	0x3da6f60c	0.081523985
225	0xbdc5982a	-0.096481636
226	0x3d23ef6a	0.040023245
227	0xbdcdb63a	-0.100445226
228	0x3e199d60	0.1500144
229	0xbda18705	-0.07887081
230	0x3e78cbc4	0.2429648
231	0xbe07fa64	-0.1327911
232	0x3e0fb9da	0.1403574
233	0xbea5dddc	-0.32395828
234	0x3e1e79f2	0.15476206
235	0x3d9e2193	0.077212475
236	0x3ceb227c	0.028702967
237	0x3e72b777	0.23702799
238	0x3e790207	0.2431718
239	0xbd10f86e	-0.03539317
240	0x3db25bac	0.08708891
241	0xbe493470	-0.1964891
242	0x3e5755df	0.21028851
243	0x3ecddbc8	0.40206742
244	0xbd109bcf	-0.03530484
245	0x3dcc8b7f	0.09987544
246	0x3e0cce46	0.13750562
247	0x3d273cd2	0.040829487
248	0xbe91dd98	-0.28489375
249	0x3e6bcb5e	0.23026797
250	0x3db22cec	0.086999744
251	0x3d48817c	0.04895161
252	0xbd8e8b47	-0.06960159
253	0x3dd51316	0.10404031
254	0x3e4e47e6	0.20144615
255	0xbe888618	-0.26664805

bias f4 [32]
0	0xbbceb978	-0.0063087307
1	0xbe2c0a14	-0.1680072
2	0x3be07200	0.0068495274
3	0x3e2a3e53	0.16625337
4	0xbe1d449f	-0.15358208
5	0x3d7a7425	0.06114592
6	0xbda087ed	-0.07838426
7	0xbe78e804	-0.24307257
8	0x3cd2c93c	0.025730722
9	0x3c325bed	0.010886175
10	0xbdcbd347	-0.09952407
11	0xbdbf83e3	-0.09351327
12	0x3e0c1f01	0.13683702
13	0xbd0f52d4	-0.0349911
14	0xbd90b16c	-0.070650905
15	0xbda4aa4d	-0.08040295
16	0xbce9a75a	-0.028522182
17	0x3c27de3c	0.010245856
18	0xbdfe363c	-0.12412688
19	0x3c9cabda	0.019124914
20	0x3c49abfd	0.012309072
21	0xbe07792d	-0.13229819
22	0xbdc366a1	-0.09541059
23	0xbdb40edf	-0.08791899
24	0xbdbf847a	-0.0935144
25	0x3bf3e523	0.0074430867
26	0x3e1f9e40	0.15587711
27	0xbc7647a5	-0.01503173
28	0xb9845094	-0.00025237037
29	0x3e109094	0.14117652
30	0xbe1d08fc	-0.15335459
31	0xbddf8dce	-0.10915719

weight f4 [32, 32]
0	0xbdeba04c	-0.115051836
1	0xb8e26e2a	-0.000107970394
2	0x3d35bf6c	0.044372007
3	0xbeb0fb2c	-0.3456663
4	0xbeae6735	-0.34063116
5	0x3b56ef37	0.0032796392
6	0x3e56c7ad	0.20974608
7	0xbe67eb21	-0.22648288
8	0xbe83eaf0	-0.2576518
9	0xbe9c09d4	-0.30476248
10	0xbdfab076	-0.122406885
11	0xbbef0648	-0.00729445
12	0x3e8e1a6e	0.2775454
13	0x3c8e531e	0.017373618
14	0x3edabd4b	0.42722544
15	0x3d263bb4	0.04058428
16	0xbb922519	-0.004459989
17	0x3d81be1b	0.06335088
18	0x3cda32e6	0.026635598
19	0xbebaaccd	-0.36459962
20	0xbd7d0df0	-0.06178087
21	0xbe898e83	-0.2686654
22	0x3e3f0a82	0.18656352
23	0x3da7aa3c	0.081867665
24	0xbda11140	-0.07864618
25	0x3e88e9ca	0.26740867
26	0x3d283f3c	0.04107593
27	0xbd601fc9	-0.054717813
28	0x3d00e13f	0.03146481
29	0xbe818927	-0.2529995
30	0xbde27bbf	-0.11058759
31	0xb98349dc	-0.00025041297
32	0xbf0b82cc	-0.54496455
33	0x3d274bfe	0.040843956
34	0xbdb650bc	-0.089021176
35	0x3e95d3cb	0.29263148
36	0x3daf318c	0.08554372
37	0xbdffcfef	-0.12490832
38	0xbe2ca72d	-0.16860647
39	0xbe0ab38d	-0.13545056
40	0x3df4c831	0.11952246
41	0x3b4336eb	0.0029787372
42	0xbe730d8e	-0.2373564
43	0x3e0e6768	0.13906634
44	0x3e2edc8f	0.17076324
45	0x3d00267d	0.031286705
46	0xbc0feacd	-0.008784008
47	0x3e6928a4	0.2276941
48	0xbe174a7a	-0.14774504
49	0x3ea3b592	0.31974465
50	0x3e156abd	0.14591499
51	0xbe49f88c	-0.1972372
52	0xbdae9677	-0.08524793
53	0x3e3625c1	0.1778784
54	0xbce2ee77	-0.0277016
55	0x3e69cead	0.22832747
56	0xbe68e7e3	-0.22744708
57	0x3d3cdd42	0.046109445
58	0x3d040f1e	0.03224098
59	0xbd488a08	-0.04895976
60	0xbe39321e	-0.18085524
61	0x3e63f385	0.22260864
62	0x3e1d6f4d	0.15374489
63	0x3d131f44	0.03591849
64	0x3e6fa105	0.23401268
65	0xbedac70b	-0.42729983
66	0xbe98fc73	-0.29880103
67	0xbdc14a83	-0.0943804
68	0xbd555b32	-0.052088924
69	0xbcf34f5a	-0.029700924
70	0xbb8e654e	-0.0043455726
71	0xbea14ceb	-0.31503996
72	0xbda91af0	-0.08257091
73	0x3dd509a8	0.104022324
74	0x3e890c3e	0.26767153
75	0x3ad8d065	0.0016541599
76	0xbe9a7b5a	-0.30172235
77	0xbdbcbe27	-0.09215956
78	0x3cc61bb8	0.02418314
79	0xbce20dd4	-0.027594484
80	0xbe622718	-0.22085226
81	0x3e83e123	0.25757703
82	0x3e1f4f9d	0.15557714
83	0x3d94c8ca	0.0726486
84	0x3e932b61	0.28744033
85	0xbe994e6b	-0.2994264
86	0x3ddbd4a9	0.10733921
87	0x3e64d5dd	0.22347207
88	0x3e2ec2d2	0.17066506
89	0x3df14f95	0.11782757
90	0xbe39e241	-0.18152715
91	0x3e412c0c	0.18864459
92	0x3d24356b	0.040090006
93	0x3d9bd3ce	0.07608758
94	0xbd490510	-0.049077094
95	0x3e890676	0.26762742
96	0xbe002378	-0.1251353
97	0x3d6c5a13	0.05770309
98	0x3c9d1523	0.019175118
99	0xbe8efaef	-0.27925822
100	0x3e30142b	0.17195193
101	0xbceb6a10	-0.028737098
102	0x3d923287	0.071385436
103	0x3db197e7	0.08671551
104	0x3e6389da	0.22220555
105	0x3bf4c271	0.0074694683
106	0xbe444edd	-0.19170709
107	0xbe80e492	-0.25174385
108	0x3d2ae045	0.041717786
109	0xbd52867d	-0.05139779
110	0x3dbb60d9	0.091493316
111	0xbcf5de00	-0.030013084
112	0x3d3b3476	0.045704328
113	0x3e81cb71	0.25350526
114	0x3deb8887	0.1150065
115	0x3dba014f	0.09082281
116	0x3eaa307b	0.33240113
117	0xbd0e78dc	-0.03478323
118	0x3ddc61aa	0.107608154
119	0xbe45103c	-0.19244474
120	0x3e59a9dc	0.21256202
121	0x3ea65a07	0.3249056
122	0x3e788c33	0.24272232
123	0x3de3d84c	0.1112524
124	0x3de8c831	0.113663085
125	0xbc989f89	-0.01863076
126	0x3d201737	0.03908464
127	0x3e8ced57	0.27524826
128	0x3e7508b7	0.23929106
129	0xbd9affa3	-0.0756829
130	0x3da12904	0.07869151
131	0x3ec04116	0.37549657
132	0x3db16028	0.086609185
133	0x3b80e9a1	0.0039341007
134	0xbd3f5d84	-0.046720043
135	0xbec05bbc	-0.37569988
136	0xbd9638eb	-0.07335075
137	0x3d8e7e3a	0.069576696
138	0xbe9d1586	-0.30680484
139	0x3e81de15	0.25364748
140	0x3dcf76b7	0.10130065
141	0xbc81daf8	-0.015851483
142	0xbcac9233	-0.021065807
143	0x3e571353	0.21003465
144	0x3e34d445	0.176591
145	0x3e001019	0.12506141
146	0x3e03576a	0.12826315
147	0x3db51cf0	0.0884341
148	0xbc9faff1	-0.019493075
149	0xbc123c3e	-0.008925496
150	0x3d894f53	0.06704583
151	0xbd48b7ff	-0.049003597
152	0x3d9a3cd7	0.075311355
153	0x3bc8b932	0.0061255926
154	0xbe427884	-0.18991286
155	0x3b85aeb6	0.004079665
156	0xbdce00de	-0.10058759
157	0x3d3e2eab	0.046431225
158	0xbe112bd7	-0.1417688
159	0x3e24a6ca	0.1607925
160	0xbd3f5f82	-0.046721943
161	0xbd3a1025	-0.045425553
162	0xbde12d03	-0.109949134
163	0xbe750946	-0.23929319
164	0x3d97c11e	0.07409881
165	0x3da2be30	0.07946432
166	0x3dd6faee	0.1049708
167	0x3e688447	0.2270671
168	0xbe97af15	-0.29625764
169	0x3e25563f	0.16146182
170	0xbdf431e4	-0.119235784
171	0xbe32778d	-0.17428418
172	0xbe4f15df	-0.20223187
173	0x3b936676	0.0044982983
174	0xbeabd1e4	-0.3355857
175	0xbcc18e02	-0.023627285
176	0x3c4d5d51	0.012534455
177	0x3d6660f2	0.056244798
178	0xbe261e5d	-0.1622252
179	0x3da90880	0.08253574
180	0xbdfcc4ba	-0.1234221
181	0x3d856225	0.0651286
182	0x3e3365db	0.17519324
183	0xbe6e73ae	-0.23286316
184	0xbdf5c927	-0.120012574
185	0xbd67e034	-0.0566103
186	0xbdc92701	-0.098218925
187	0xbe37689c	-0.17910999
188	0x3db30969	0.08742029
189	0xbd9efb46	-0.0776277
190	0x3d462520	0.04837525
191	0xba9264ed	-0.0011168994
192	0x3e115294	0.14191657
193	0xbe38346c	-0.17988747
194	0xbd3328c6	-0.043740056
195	0xbde9e0c6	-0.11419825
196	0xbc9fbac5	-0.019498238
197	0xbe5b6520	-0.21425295
198	0x3e908325	0.28225055
199	0xbe952d5f	-0.29136178
200	0x3d845ec6	0.06463389
201	0x3ec107eb	0.37701353
202	0x3de31ac3	0.11089089
203	0x3d199b05	0.037501354
204	0xbdde9988	-0.108691275
205	0x3e11e057	0.14245735
206	0xbdefa2af	-0.11700951
207	0xbdddd42d	-0.10831485
208	0x3d440a3a	0.047861315
209	0xbc9fad3b	-0.019491782
210	0x3e2854c8	0.16438591
211	0xbe6b0792	-0.22952107
212	0x3e46d75d	0.19418092
213	0x3d72d755	0.059287388
214	0xbe214423	-0.15748648
215	0x3dec36bb	0.115338765
216	0x3e8d4abb	0.27596077
217	0x3e2c779e	0.16842505
218	0x3e968b08	0.29402947
219	0xbe5e5a63	-0.21714167
220	0xbe12dbae	-0.14341614
221	0x3e38d65d	0.18050523
222	0xbe8ba742	-0.27276045
223	0x3e214238	0.15747917
224	0xbd609804	-0.054832473
225	0x3d635914	0.055504873
226	0x3e40ae6f	0.18816541
227	0x3d146c58	0.036236137
228	0xbe04f8e3	-0.12985568
229	0xbe934543	-0.2876378
230	0xbd09fd75	-0.03368898
231	0x3e2ed0c0	0.1707182
232	0xbe9050e9	-0.2818673
233	0xbdc4c26c	-0.096073955
234	0x3d357baa	0.04430739
235	0x3e3581f5	0.17725356
236	0x3d81d226	0.06338911
237	0xbc65c415	-0.0140238
238	0xbdcf9ecf	-0.10137712
239	0xbe2e1523	-0.1700025
240	0xbe28d7ea	-0.16488615
241	0xbc4a0046	-0.012329167
242	0xbd18545a	-0.03718982
243	0xbeb5a865	-0.35480037
244	0x3e320bb6	0.1738728
245	0x3d764118	0.060120672
246	0xbe267122	-0.16254094
247	0x3e87baf4	0.2650982
248	0x3d273ce4	0.040829554
249	0xbdde2bba	-0.10848184
250	0xbc985a64	-0.01859779
251	0xbe118a5d	-0.14212938
252	0xbd20236e	-0.03909629
253	0x3cbf82b7	0.02337776
254	0xbcc9024e	-0.024537232
255	0x3e0881e2	0.13330796

bias f4 [32]
0	0x3dfd7088	0.12374979
1	0xbe05424f	-0.13013576
2	0xbd5db951	-0.05413181
3	0xbc8a2437	-0.016862972
4	0xbd9f5e7e	-0.07781695
5	0xbc067595	-0.008206745
6	0x3da11139	0.07864613
7	0x3e11fe8c	0.14257258
8	0xbe1cf910	-0.15329385
9	0x3d8ce8ac	0.06880316
10	0x3c30a614	0.010781784
11	0x3e50a5ad	0.203757
12	0xbdd556f1	-0.104169734
13	0x3af58729	0.0018732297
14	0xbdd9d370	-0.10636032
15	0x3e0cb173	0.13739567
16	0x3d910578	0.07081121
17	0x3dbac4a9	0.09119541
18	0xbd2727c4	-0.040809408
19	0xbd958f7c	-0.07302758
20	0x3de3d3d9	0.11124391
21	0xbdd60e0d	-0.10451899
22	0x3de1e43e	0.11029862
23	0x3dbe9661	0.09306026
24	0x3d31afa1	0.043380383
25	0xbe026b88	-0.12736332
26	0x3e04cf28	0.12969649
27	0xbe615a83	-0.22007184
28	0xbe806160	-0.2507429
29	0xbdaf40ec	-0.08557305
30	0xbd9b18fa	-0.07573123
31	0x3e30b752	0.17257431

weight f4 [1, 32]
0	0x3cfab91c	0.030605845
1	0xbdbc5573	-0.09195986
2	0xbdb31bb9	-0.08745522
3	0x3e85a75f	0.26104257
4	0x3a73b839	0.00092971657
5	0xbbd373b1	-0.0064530005
6	0xbda021ab	-0.07818922
7	0x3c9d0190	0.019165784
8	0xbe0b7897	-0.1362022
9	0xbdffd8d1	-0.12492526
10	0x3bde2fc6	0.0067805974
11	0x3da2d8f9	0.079515405
12	0x3db46870	0.08808982
13	0xbd2c3687	-0.04204419
14	0x3dcea239	0.10089535
15	0x3e2ac082	0.16674998
16	0xbcfc969c	-0.030833535
17	0xbd1bbfd3	-0.038024735
18	0x3e0dc334	0.13843995
19	0xbd8ff6c8	-0.07029492
20	0x3e713125	0.23553903
21	0xbd5289de	-0.05140101
22	0xbf1b3c26	-0.60638654
23	0xbdd43b77	-0.103629045
24	0xbe1f1e51	-0.15538909
25	0xbe819726	-0.2531063
26	0x3dbd9115	0.09256188
27	0xbeb475bd	-0.35246077
28	0xbe522132	-0.20520476
29	0xbd1ad7ad	-0.03780334
30	0xbd81fcbe	-0.06347035
31	0x3dd4e2fa	0.10394855
